…
2021-03-04 15:08:43 | X Train set size: (378048, 192, 9, 1)
2021-03-04 15:08:43 | X Validation set size: (47256, 192, 9, 1)
2021-03-04 15:08:43 | X Test set size: (47256, 192, 9, 1)
2021-03-04 15:08:43 | y Train set size: (378048, 192, 9, 1)
2021-03-04 15:08:43 | y Validation set size: (47256, 192, 9, 1)
2021-03-04 15:08:43 | y Test set size: (47256, 192, 9, 1)
2021-03-04 15:08:43 | building model...
Model: "sequential"
_________________________________________________________________
Layer (type)                 Output Shape              Param #   
=================================================================
conv2d (Conv2D)              (None, 190, 7, 32)        320       
_________________________________________________________________
conv2d_1 (Conv2D)            (None, 188, 5, 64)        18496     
_________________________________________________________________
conv2d_2 (Conv2D)            (None, 186, 3, 64)        36928     
_________________________________________________________________
max_pooling2d (MaxPooling2D) (None, 93, 1, 64)         0         
_________________________________________________________________
dropout (Dropout)            (None, 93, 1, 64)         0         
_________________________________________________________________
flatten (Flatten)            (None, 5952)              0         
_________________________________________________________________
dense (Dense)                (None, 128)               761984    
_________________________________________________________________
dropout_1 (Dropout)          (None, 128)               0         
_________________________________________________________________
dense_1 (Dense)              (None, 126)               16254     
_________________________________________________________________
reshape (Reshape)            (None, 6, 21)             0         
_________________________________________________________________
activation (Activation)      (None, 6, 21)             0         
=================================================================
Total params: 833,982
Trainable params: 833,982
Non-trainable params: 0
_________________________________________________________________
2021-03-04 15:08:43 | training...
2021-03-04 18:28:13 | plot...
2021-03-04 18:28:14 | save model...
2021-03-05 22:05:20 | Start tabModel
2021-03-05 22:05:20 | load data...
2021-03-05 22:05:24 | X Train set size: (378048, 192, 9, 1)
2021-03-05 22:05:24 | X Validation set size: (47256, 192, 9, 1)
2021-03-05 22:05:24 | y Train set size: (378048, 6, 21)
2021-03-05 22:05:24 | y Validation set size: (47256, 6, 21)
2021-03-05 22:05:24 | building model...
Model: "sequential"
_________________________________________________________________
Layer (type)                 Output Shape              Param #   
=================================================================
conv2d (Conv2D)              (None, 190, 7, 32)        320       
_________________________________________________________________
conv2d_1 (Conv2D)            (None, 188, 5, 64)        18496     
_________________________________________________________________
conv2d_2 (Conv2D)            (None, 186, 3, 64)        36928     
_________________________________________________________________
max_pooling2d (MaxPooling2D) (None, 93, 1, 64)         0         
_________________________________________________________________
dropout (Dropout)            (None, 93, 1, 64)         0         
_________________________________________________________________
flatten (Flatten)            (None, 5952)              0         
_________________________________________________________________
dense (Dense)                (None, 128)               761984    
_________________________________________________________________
dropout_1 (Dropout)          (None, 128)               0         
_________________________________________________________________
dense_1 (Dense)              (None, 126)               16254     
_________________________________________________________________
reshape (Reshape)            (None, 6, 21)             0         
_________________________________________________________________
activation (Activation)      (None, 6, 21)             0         
=================================================================
Total params: 833,982
Trainable params: 833,982
Non-trainable params: 0
_________________________________________________________________
2021-03-05 22:05:24 | training...
2021-03-05 22:07:40 | Start tabModel
2021-03-05 22:07:40 | load data...
2021-03-05 22:07:43 | X Train set size: (378048, 192, 9, 1)
2021-03-05 22:07:43 | X Validation set size: (47256, 192, 9, 1)
2021-03-05 22:07:43 | y Train set size: (378048, 6, 21)
2021-03-05 22:07:43 | y Validation set size: (47256, 6, 21)
2021-03-05 22:07:43 | building model...
Model: "sequential"
_________________________________________________________________
Layer (type)                 Output Shape              Param #   
=================================================================
conv2d (Conv2D)              (None, 190, 7, 32)        320       
_________________________________________________________________
conv2d_1 (Conv2D)            (None, 188, 5, 64)        18496     
_________________________________________________________________
conv2d_2 (Conv2D)            (None, 186, 3, 64)        36928     
_________________________________________________________________
max_pooling2d (MaxPooling2D) (None, 93, 1, 64)         0         
_________________________________________________________________
dropout (Dropout)            (None, 93, 1, 64)         0         
_________________________________________________________________
flatten (Flatten)            (None, 5952)              0         
_________________________________________________________________
dense (Dense)                (None, 128)               761984    
_________________________________________________________________
dropout_1 (Dropout)          (None, 128)               0         
_________________________________________________________________
dense_1 (Dense)              (None, 126)               16254     
_________________________________________________________________
reshape (Reshape)            (None, 6, 21)             0         
_________________________________________________________________
activation (Activation)      (None, 6, 21)             0         
=================================================================
Total params: 833,982
Trainable params: 833,982
Non-trainable params: 0
_________________________________________________________________
2021-03-05 22:07:44 | training...
2021-03-06 16:18:26 | Start tabModel
2021-03-06 16:18:26 | load data...
2021-03-06 16:18:35 | X Train set size: (378048, 192, 9, 1)
2021-03-06 16:18:35 | X Validation set size: (47256, 192, 9, 1)
2021-03-06 16:18:35 | y Train set size: (378048, 6, 21)
2021-03-06 16:18:35 | y Validation set size: (47256, 6, 21)
2021-03-06 16:18:35 | building model...
Model: "sequential"
_________________________________________________________________
Layer (type)                 Output Shape              Param #   
=================================================================
conv2d (Conv2D)              (None, 190, 7, 32)        320       
_________________________________________________________________
conv2d_1 (Conv2D)            (None, 188, 5, 64)        18496     
_________________________________________________________________
conv2d_2 (Conv2D)            (None, 186, 3, 64)        36928     
_________________________________________________________________
max_pooling2d (MaxPooling2D) (None, 93, 1, 64)         0         
_________________________________________________________________
dropout (Dropout)            (None, 93, 1, 64)         0         
_________________________________________________________________
flatten (Flatten)            (None, 5952)              0         
_________________________________________________________________
dense (Dense)                (None, 128)               761984    
_________________________________________________________________
dropout_1 (Dropout)          (None, 128)               0         
_________________________________________________________________
dense_1 (Dense)              (None, 126)               16254     
_________________________________________________________________
reshape (Reshape)            (None, 6, 21)             0         
_________________________________________________________________
activation (Activation)      (None, 6, 21)             0         
=================================================================
Total params: 833,982
Trainable params: 833,982
Non-trainable params: 0
_________________________________________________________________
2021-03-06 16:18:35 | training...
2021-03-06 19:33:14 | plot...
2021-03-06 19:33:14 | save model...
2021-03-06 19:33:14 | End tabModel
2021-03-08 10:12:17 | Start tabModel
2021-03-08 10:12:17 | load data...
…
